NNweights.npy (npy, 720 bytes, 1 tensors)

array f8 [20, 2, 2]
0	0xbfb6573f11df00ea	-0.08726877390199986
1	0xbfe66b0013641c62	-0.7005615595561603
2	0x3ff8b939b1bd2718	1.5452210371899522
3	0xbfe3e252d3fd764e	-0.6213773861342788
4	0x3fdcb5dd5ce7b306	0.4486001403118255
5	0x3ff43242fdeb8916	1.2622709196808208
6	0x3ffe9a5c1cdc8ffa	1.9126855018048432
7	0x3fe8ee131e9fedcc	0.7790618513239962
8	0x3fe29acc050dd084	0.581396112319013
9	0x3fe6ab432ce742da	0.7084060551661324
10	0x3fe8527248821490	0.7600642601179448
11	0x3ff14a567260355e	1.0806488483243224
12	0xbfebfd39ea480b24	-0.8746614051636681
13	0xbfe95fa881c29078	-0.7929270300269442
14	0x3fe52f83880492c0	0.6620500237082396
15	0xbff16f1c4b81a04c	-1.0896265935389406
16	0xbff5d4109d6c4fcc	-1.3642736577357821
17	0xbfde9d637543644e	-0.4783562321804923
18	0xbff3411475620838	-1.203388651396848
19	0x3fe31bec41844db4	0.5971585540414055
20	0xbfe7dc50cd3d7530	-0.7456439980120759
21	0x3ff2d3be21c1e9aa	1.176694995751499
22	0xbff89c0ed173446e	-1.538100069203462
23	0xbff51367e979bab4	-1.317237770093624
24	0x3ff2c367aeba22ea	1.1727063012387426
25	0xbff20c708c315ba0	-1.1280370212823314
26	0x3ff5cebaf9264748	1.3629712803271605
27	0xbfdc586577a54066	-0.4428952854550573
28	0x3ff2df8047857620	1.1795656961252305
29	0x3fea88ce5b0499ec	0.829199960488777
30	0x3ffdf899a667ea3c	1.8731934070807617
31	0x3ff99a18cdd53930	1.6001213112209136
32	0x3fe8102f9b9d2f28	0.7519758262000993
33	0x3ff6f2a844cc044c	1.4342425048237315
34	0xbfe7c473f2a5a522	-0.7427310694885458
35	0xbff4edd89c3362c4	-1.3080679036703922
36	0xbff93682757d8e98	-1.5758080090971927
37	0x3ff16bdda21b899a	1.0888344127966776
38	0xbfef91e9aa54f6fa	-0.9865616156382366
39	0xbff104131fff34ba	-1.0634948015097465
40	0x3ff8be622fb06394	1.5464803564884493
41	0xbff7a180c30935d6	-1.4769294375031357
42	0xbff9bfc34664c200	-1.6093170881032393
43	0x3fef1f9a7d39f572	0.9726078458622125
44	0xbffb45a0c9b82e7a	-1.7044990424791693
45	0x3ff5fe03c36c6bd2	1.3745153077822931
46	0x4003d9ef35bcf6d6	2.481413287953596
47	0x3ffe7ae894eaf619	1.9050069634535076
48	0xbff2b023c8649c29	-1.1680028751232021
49	0xc005337dd23cd937	-2.650142328721951
50	0xbff1f967559cc10a	-1.123389563010337
51	0x3fe4279fb6cfcf68	0.6298368998090895
52	0xc0015011419e634e	-2.1640954138241915
53	0x3ff5f432981080ac	1.3721185627000905
54	0x3fece0c39a137973	0.9024370202348976
55	0x3fefad33217f3a7d	0.9898925451505672
56	0xc002b034c2eff2f1	-2.3360381345249768
57	0xbff5ee37f1bcf468	-1.3706588213820172
58	0x3ff51280b94db4a0	1.31701729187197
59	0xbfecc9a8d0ddba3f	-0.8996166304985492
60	0xc0080694556c4699	-3.0032126115482467
61	0xbfedd365ec404fd5	-0.932055436542664
62	0x3ff2ab17a40afd2c	1.1667705924917966
63	0xbff357d9ac27ca01	-1.2089478230305988
64	0x4005089d246ffba9	2.6292059752153887
65	0x3ff9d845eb8134f5	1.6153010558512595
66	0x3ff6944ddcbd0282	1.4112070677366835
67	0x3ff1f845f019f137	1.123113572975013
68	0x3ff793a54b239f9d	1.4735463080523694
69	0x4007d3ab716ad44f	2.978354345390961
70	0x3ff47ff085bfa4cd	1.2812352394633308
71	0x3ffa97837bb50367	1.661990626555246
72	0x3ff8817f399f6505	1.5316154719242274
73	0x40108df6930daad0	4.138635919293577
74	0xbff56c0638551589	-1.338873119400292
75	0xbfd7bc854ff82eeb	-0.3708813935233894
76	0x40045e9305605a4f	2.546178857806161
77	0xbff66d94c7c43617	-1.4017532161118476
78	0xbfb47c61c27f33fa	-0.08002291677912857
79	0x3fef94a67bbf0fc0	0.9868957917137706
